…
predict : False
num_classes : 10
num_epochs : 10
batch_size : 10
optimizer : adam
callback_list : checkpoint, csv_log
activation_fn : relu
base_learning_rate : 0.001
loss_type : categorical_crossentropy
eval_metrics : accuracy
mgpu_run : False
n_gpus : 1
use_multiprocessing : True
workers : 6
Train: X=(60000, 28, 28), y=(60000,)
Test: X=(10000, 28, 28), y=(10000,)
Model: "sequential"
_________________________________________________________________
 Layer (type)                Output Shape              Param #   
=================================================================
 flatten (Flatten)           (None, 784)               0         
                                                                 
 dense (Dense)               (None, 200)               157000    
                                                                 
 dense_1 (Dense)             (None, 150)               30150     
                                                                 
 dense_2 (Dense)             (None, 100)               15100     
                                                                 
 dense_3 (Dense)             (None, 60)                6060      
                                                                 
 dense_4 (Dense)             (None, 10)                610       
                                                                 
=================================================================
Total params: 208,920
Trainable params: 208,920
Non-trainable params: 0
_________________________________________________________________
/home/william.frazier/.conda/envs/myEnv/lib/python3.9/site-packages/keras/optimizers/optimizer_v2/adam.py:110: UserWarning: The `lr` argument is deprecated, use `learning_rate` instead.
  super(Adam, self).__init__(name, **kwargs)
Model: "sequential"
_________________________________________________________________
 Layer (type)                Output Shape              Param #   
=================================================================
 flatten (Flatten)           (None, 784)               0         
                                                                 
 dense (Dense)               (None, 200)               157000    
                                                                 
 dense_1 (Dense)             (None, 150)               30150     
                                                                 
 dense_2 (Dense)             (None, 100)               15100     
                                                                 
 dense_3 (Dense)             (None, 60)                6060      
                                                                 
 dense_4 (Dense)             (None, 10)                610       
                                                                 
=================================================================
Total params: 208,920
Trainable params: 208,920
Non-trainable params: 0
_________________________________________________________________
WARNING:tensorflow:`period` argument is deprecated. Please use `save_freq` to specify the frequency in number of batches seen.
…
